modelo_Linear.onnx (onnx, 1090 bytes, 3 tensors)

network.0.weight f4 [37, 1]
0.9065403 -0.18366122 0.72208196 -0.75856584 0.6500032 -0.6267599 1.193883 0.27501523
1.0290678 -0.7710738 -1.0610558 -0.5999207 0.36339983 -0.44209123 -0.8831114 0.015350938
-0.73692775 -0.5260675 -0.515423 0.731169 -0.7410142 -0.6494863 0.16068959 -0.07246035
-0.011977753 -0.47837365 -0.6502908 0.02113545 -0.6674528 0.099968866 0.4479264 -0.97402245
-0.19368297 0.0020009305 -0.668083 -0.41826677 -0.55325276
00000000: 0613 683f b011 3cbe 5dda 383f 5f31 42bf
00000010: 9c66 263f 5673 20bf 28d1 983f ccce 8c3e
00000020: 7eb8 833f 1865 45bf add0 87bf 6794 19bf
00000030: 8b0f ba3e c859 e2be 9713 62bf 8082 7b3c
00000040: 4ca7 3cbf 5cac 06bf c3f2 03bf e42d 3b3f
00000050: 1bb3 3dbf bc44 26bf d08b 243e 1866 94bd
00000060: 563e 44bc 64ed f4be 7579 26bf 4024 ad3c
00000070: 30de 2abf 7abc cc3d 9c56 e53e 8959 79bf
00000080: d454 46be 0b22 033b 7d07 2bbf 1027 d6be
00000090: f9a1 0dbf

network.0.bias f4 [37]
-0.9764725 -0.48687768 -0.62560326 -0.0048366473 -0.43632612 0.07949523 -0.005178704 -0.6448003
-0.5204863 0.04691924 0.22599845 0.5995406 -0.034735817 -0.90759754 0.44566625 -0.09215331
-0.09760976 -0.0616574 0.08461377 -0.2597026 -0.014962922 -0.36201525 -0.531363 0.025762688
-0.24167697 0.1298141 -0.11310079 -0.053964376 -0.0033705235 -0.19120537 -0.34197226 -0.00010444527
-0.002486215 -0.2826239 0.33358604 -0.1660304 -0.06589756
00000000: 1afa 79bf 0848 f9be 8927 20bf bd7c 9ebb
00000010: 2366 dfbe 65ce a23d 1eb2 a9bb a211 25bf
00000020: 973e 05bf 642e 403d 236c 673e 7e7b 193f
00000030: 2547 0ebd 5058 68bf 5e2e e43e e0ba bcbd
00000040: a0e7 c7bd 788c 7cbd fc49 ad3d bdf7 84be
00000050: 0b27 75bc 105a b9be 6807 08bf 460c d33c
00000060: 2b7a 77be fded 043e 63a1 e7bd c009 5dbd
00000070: 00e4 5cbb 57cb 43be fd16 afbe a109 dbb8
00000080: c4ef 22bb 14b4 90be cacb aa3e e003 2abe
00000090: 4df5 86bd

network.2.weight f4 [1, 37]
0.15436655 -0.116971 0.120631464 -0.07313813 0.14624433 0.032422774 0.40773535 0.072702065
0.33962294 0.020422444 0.066503145 -0.15008624 0.07797563 0.042048737 -0.24901897 -0.14950646
0.02148205 -0.09121866 0.021928422 0.1412458 -0.039184894 0.0001218915 -0.105762266 -0.003433198
0.1364509 0.0008340294 -0.21215579 -0.0010038018 -0.031284228 -0.00011359959 0.08225298 -0.08663988
-0.025068378 0.14644769 -0.045226086 0.042223215 -0.0926965
00000000: 4412 1e3e 7e8e efbd a10d f73d 72c9 95bd
00000010: 13c1 153e becd 043d b0c2 d03e d2e4 943d
00000020: 0fe3 ad3e f84c a73c cd32 883d 35b0 19be
00000030: b0b1 9f3d 4c3b 2c3d d4fe 7ebe 3918 19be
00000040: 20fb af3c d9d0 babd 3ca3 b33c bda2 103e
00000050: 5780 20bd 00a0 ff38 e399 d8bd 81ff 60bb
00000060: c9b9 0b3e c4a2 5a3a 5e3f 59be 0092 83ba
00000070: e423 00bd 513c eeb8 4074 a83d 4070 b1bd
00000080: 335c cdbc 62f6 153e fd3e 39bd 40f2 2c3d
00000090: aad7 bdbd
