model_10_epochs.pth (torch, 3829 bytes, 5 tensors)

network.0.weight f4 [13, 1]
00000000: 5f4a 303f 004e 773e 5071 3f3e d48c 8abe
00000010: f6d2 25bf 5725 843f 80bd 273d 67de 88be
00000020: 9c6f 893e c838 cf3e c685 553f 80e0 cf3d
00000030: 3081 a1be
0.6886348 0.24150848 0.18695569 -0.27060568 -0.64775026 1.0323895 0.040952206 -0.2673218
0.26842964 0.40473008 0.8340725 0.10150242 -0.31543875

network.0.bias f4 [13]
00000000: 3c4d e6be 6c59 debe 7471 8ebe ae20 843f
00000010: 351d 433f 68e6 18bc 4cae 1fbf c987 883e
00000020: 48b5 8ebe 3cbe ddbe a6b2 8fbe 5898 18be
00000030: ef60 d43d
-0.449808 -0.43427598 -0.27820933 1.0322473 0.7621644 -0.009332277 -0.6237533 0.26666096
-0.27872682 -0.433092 -0.28065985 -0.14901865 0.10370051

network.2.weight f4 [13, 13]
00000000: a4e3 3c3e 5c06 f53d 20b5 29bc 1413 193d
00000010: ea2e 753c 3bba e4bd 0c42 a93d d208 95bd
00000020: 3112 0dbe dc20 3b3e 13b9 cd3e f866 36be
00000030: 6162 e8bd b2e6 f8bd 6874 833d fca4 a4bd
00000040: 453c 27bd afb3 363e 913e c1be 58d3 48bd
00000050: 7ab2 2dbe c076 ae3c 0c65 bfbd ff8e 93be
00000060: 16c3 7fbe aa86 b33e 482f 433e e78c 863e
00000070: c0aa 4c3e 28a2 c5bd 9ac3 21be 4cfb cfbd
00000080: 0e4a 413e f4f3 a83d 80b8 5bbd d0a3 d2bc
00000090: 9c83 4c3e a773 73be 6e25 83be dd5d 2e3e
000000a0: d51c 60be 608a 333e dabd d13d d12c b8bd
000000b0: 62f6 ed3d da66 51be d7b9 0dbe 1e6d 16be
000000c0: 9cf2 363e e3cd a23e 1d4b 7ebe 9a51 b7bd
000000d0: 20b6 c73e 0804 633d 7039 8a3d 204c 913e
000000e0: 342f 8ebe 2c96 b63e 7c52 07bd 79b5 82be
000000f0: 90a2 be3d 490d 84be 85b0 723e e989 48be
00000100: 75cb ab39 43d1 723d ecfb 623e 4b7f 8d3e
00000110: 530d 3d3e 1e06 4abe 5680 81bc ff2c 06be
00000120: ea34 883e c600 3c3e cbbf 81be 1807 2bbe
00000130: ae3f c1bd e79a 233e 7c92 3f3d 404a 2c3c
00000140: 78fb 4bbd a34b 493e f0f0 c53e 6c4b 9cbe
00000150: 0a36 3e3e 041f bd3d f279 763e d047 193d
00000160: 5ccd af3d 964b 52be 59d1 bc3d 6fc3 6cbb
00000170: 90de 2a3e 2aaf 23be e0ae c2ba d48d ec3d
00000180: 628e cd3c 98ab 463d eac4 343a e8fa 30bd
00000190: 0ab7 3fbe f3bb 943e ff12 823e 1a91 9fbe
000001a0: 707c 813e e832 34be 3348 853e a398 713e
000001b0: d7d6 84be abd3 d93e c482 b93d d0d5 53be
000001c0: a04a 223e d061 41be 49f8 8abb ec4a 5cbe
000001d0: 380c 35be 46ff 753e c0dd ccbc 80c6 233d
000001e0: 6149 82be 9cab 403e 37f0 4dbe f22c 6a3e
000001f0: ff40 81be 8402 bdbd 842c fe3d ea6e 683e
00000200: 3c18 9abd 9003 ef3d c623 d63d 5498 06be
00000210: 9487 82be 4e8f 533e 1f9f 7cbe 1cb2 2b3d
00000220: 041b a03d 1b0c b3be acfc 4b3e 72d6 483e
00000230: 50c6 a33e 70f1 293e 18bf 943d c0cb dbbc
00000240: 7672 ddbd c6be 7b3e 5b4d 08be cc29 05bd
00000250: fb72 40be 188a ae3d 53ca 8cbe 45a2 53be
00000260: c2f3 5bbe 42b8 613e 74a2 c73d 4ecb e8bd
00000270: dd25 93be 1657 603e d96a 20be db54 7a3e
00000280: 1e09 d93d 35af a6bd e667 4a3e 7595 6f3e
00000290: 8c4f 833d a649 2cbe a886 efbd be79 12be
000002a0: e0c1 83bd
0.18446213 0.119641036 -0.010358125 0.03737171 0.014964798 -0.11168333 0.082645506 -0.07277073
-0.1377647 0.18274254 0.40180263 -0.17812717 -0.11346889 -0.12153377 0.06418687 -0.08039281
-0.040828962 0.17841981 -0.37743047 -0.049029678 -0.16962615 0.021296859 -0.09345445 -0.28820035
-0.24976763 0.35063678 0.19061005 0.26279375 0.19987011 -0.096500695 -0.15797272 -0.10155353
0.18875906 0.08249655 -0.05364275 -0.025712878 0.1997208 -0.23774587 -0.25614494 0.17027994
-0.21885999 0.17533255 0.102412894 -0.08992923 0.116192594 -0.20449391 -0.13840424 -0.14690062
0.17865986 0.31797704 -0.24833341 -0.08951111 0.39006138 0.055423766 0.067492366 0.2837839
-0.27770388 0.35661447 -0.033037648 -0.25529078 0.0930835 -0.25791386 0.2370015 -0.19583859
0.0003276725 0.0592816 0.22166413 0.2763618 0.18462114 -0.19728896 -0.015808266 -0.13103102
0.2660287 0.1835967 -0.2534164 -0.16701925 -0.09435974 0.1597706 0.046770558 0.010515749
-0.049800366 0.1965776 0.38660383 -0.30526292 0.18575302 0.092344314 0.24069956 0.037422
0.08584091 -0.20536646 0.092196174 -0.003612723 0.16686463 -0.15984789 -0.0014853142 0.11550489
0.025092307 0.04850349 0.00068957976 -0.043208033 -0.18722168 0.29049644 0.25405118 -0.3116539
0.2529025 -0.17597544 0.26031646 0.23593383 -0.2594516 0.42544302 0.09058145 -0.20687032
0.1584878 -0.18884969 -0.0042410237 -0.21512955 -0.17680442 0.2402316 -0.025008082 0.039984226
-0.2544661 0.18815464 -0.20111166 0.22868708 -0.252449 -0.092289954 0.124108344 0.2269856
-0.075241536 0.11670601 0.10456042 -0.13144046 -0.25494063 0.20660135 -0.24670075 0.041917905
0.07817653 -0.34970173 0.19920605 0.19613054 0.31987238 0.16596007 0.07263011 -0.026830554
-0.10812847 0.24584493 -0.13310759 -0.032510564 -0.18793862 0.08522433 -0.2749811 -0.2066737
-0.21479705 0.22042945 0.09747782 -0.11366902 -0.28739825 0.2190822 -0.15665759 0.24446432
0.10597442 -0.08138887 0.19766197 0.23396857 0.06411657 -0.1682497 -0.116956055 -0.14304253
-0.06433463

network.2.bias f4 [13]
00000000: c93e 713e 31ff cd3d 1cbe 1dbd a4c8 af3e
00000010: 4d1f 863d 4968 953d c372 f23d cdaa 893e
00000020: 8917 1fbd e9e3 81be 9420 a23e ec13 f53d
00000030: e47e 9e3c
0.23559107 0.100584395 -0.03851138 0.34332764 0.06548939 0.072952814 0.11838295 0.26888123
-0.038840804 -0.25369194 0.3166548 0.119666904 0.019347616

network.4.weight f4 [1, 13]
00000000: 280c d1bc caa3 cfbd 60be c43c 448a b73e
00000010: cbd3 b43e 841d 82bd c893 b7be 1f62 703e
00000020: e891 293e 050f 873e f3cb 4e3e cae7 0fbe
00000030: 54cb 96be
-0.025518492 -0.10138662 0.02401656 0.35847676 0.35317835 -0.06353286 -0.35854936 0.2347493
0.16559565 0.26378646 0.20194988 -0.14053264 -0.29452002
