temp.pth (torch, 12785 bytes, 5 tensors)

network.0.weight f4 [48, 1]
00000000: 5390 f33e ea19 34bf d9a2 633f 3294 443f
00000010: 8013 c53e 5c5c a13e 1d03 113e 06c9 14bf
00000020: ef3b ffbe 00b0 633c 1f84 473f 104a 2f3f
00000030: 56dc 32bd b5a6 ad3e 8935 92be afb3 1c3e
00000040: 10de 503f 1ee7 4dbf 4fa1 d7be e7cf 85bf
00000050: 003f 933e 0241 5cbf d651 1c3f 6c2a 8bbe
00000060: 28da 12bf 70b5 f6be 6a03 2fbf eac8 4bbf
00000070: 3c36 5ebf c293 1bbf 4e40 23bf 94cc a83e
00000080: decc 7abf b473 19be 0eb6 39bf 9432 b3be
00000090: 60bd ae3e c88a 6b3e 79b6 21bf c44d b6be
000000a0: 80ca 6fbc 78aa 543e 2888 a63e a0c4 80bf
000000b0: 0837 8e3e 3be3 063d 60a7 2a3d 3c23 b83e
0.47571048 -0.7035204 0.8892036 0.7678863 0.3849144 0.31515777 0.14161344 -0.5811924
-0.49850413 0.013896942 0.77935976 0.68472385 -0.04366716 0.3391625 -0.2855647 0.15302919
0.8158884 -0.8043078 -0.42115256 -1.0454072 0.28759003 -0.86036694 0.6106237 -0.27180803
-0.5736413 -0.481853 -0.68364584 -0.79603446 -0.86801505 -0.60772336 -0.63769996 0.3296858
-0.9796885 -0.14985543 -0.7254342 -0.34999526 0.34128857 0.2300216 -0.63169056 -0.35606205
-0.014635682 0.20768154 0.32525754 -1.0060005 0.2777636 0.032931548 0.041663527 0.35964382

network.0.bias f4 [48]
00000000: eb71 ff3e cda0 343f f981 3bbf 6806 083f
00000010: a2c8 143f 887f b4be 0937 133f c0d8 6abe
00000020: 6272 6a3e 00fc 81bd c1de 01be 3697 c0be
00000030: bf29 a4bc 760e 42be 8a5d 7c3d 18de 133f
00000040: 7b1c 553d 38d2 d03d 60b4 eb3e c003 943e
00000050: ac7d 5ebf ecda 353e ff64 5d3f 120f 3cbf
00000060: 20fc 66bf 8088 d5be 3623 42bf eb0b 273f
00000070: 44fe 1dbf c0af dcbd da3a 233f 1231 343f
00000080: de0b 5dbf 6faa 01bd f4ed 8abe faf3 923e
00000090: daa9 50bf 9807 31bf d554 223f 2206 76bf
000000a0: 9613 03bf caff 44bf 248e 77bf 0151 0d3f
000000b0: bcde 50bf 68f0 8f3e 80f9 ddbe b8c9 59bf
0.498916 0.7055786 -0.732452 0.53134775 0.5811864 -0.3525355 0.5750585 -0.22934246
0.22895196 -0.06346893 -0.1268263 -0.37615365 -0.020039437 -0.18950829 0.061612643 0.57760763
0.052029114 0.10196346 0.46036053 0.2890911 -0.8691051 0.17759293 0.8648223 -0.73460495
-0.9022846 -0.41705704 -0.7583498 0.6525256 -0.61716104 -0.10775709 0.63761675 0.70387375
-0.8634623 -0.03165668 -0.2713467 0.28701764 -0.8150917 -0.6915221 0.63410693 -0.9610311
-0.5120176 -0.76952803 -0.96701264 0.5520173 -0.81589866 0.28113103 -0.43354416 -0.85073423

network.2.weight f4 [48, 48]
00000000: 5112 6ebe b78d 12be 2886 13be b86d 5d3c
00000010: 9e86 993c 0099 f6bd a96d 1e3d a0c1 6f3c
00000020: 5d01 5cbe 7648 f4bd ec89 d5bc 9a53 2ebd
00000030: 3e10 3dbc b451 183d 8036 873c 3718 d7bd
00000040: 00b0 20bd 4b96 0fbe c3d7 66be 0376 8e3d
00000050: e6e4 16bd e872 a33c f3d2 67bd a74e 10be
00000060: 2a3c 6fbd 4e20 03be 809e e6ba ba33 c53d
00000070: 9827 333d 4a6d a3bd 8d61 69be 1df0 14be
00000080: 46f1 62bd 1920 913c 62ea 27bd a9ef 5d3e
00000090: f476 133d 6101 07be 6874 f83b 4a01 a3bd
000000a0: 7c66 bf3d a0e8 c33d 425e 04be b984 ad3d
000000b0: e5fc c7bd 21e7 d9bc ae17 023e d011 cb3c
000000c0: 2071 bb3d 1030 88bd 9f59 973e a39a 3a3e
000000d0: 906d 0d3e 44a6 c63d c0af f93d d9c0 86bd
000000e0: 7da8 21bd f983 0ebe 368f 7c3e d8e8 c03e
000000f0: cafa 383d 076a 993e d826 94bc da84 323e
00000100: 6104 553e 0620 90be 13c8 c13d b0b5 8fbe
00000110: f2eb 27bd 542b 70bd 1637 bb3d 2494 773d
00000120: eb17 a7bd 7cee 18bd ef6d 13be 4ec7 9cbe
00000130: 56b5 a13d 4cd1 8d3d 16d1 d4bd 981d 073e
00000140: 425a a73d 99a2 b43d 3408 233d 326a 46bd
00000150: b6d6 cebd 0eac 4dbd c67d cf3c 78b0 6a3d
00000160: f00b 0fbe 003b 5e3d 13ca bfbd 9823 78be
00000170: 14c1 fd3d c7da 0c3d 0aa7 f4bd a4d3 edbc
00000180: 2da1 f9bd f783 b5bd 6c92 ccbc b781 72be
00000190: ff06 5bbc 9e80 913d 7f85 ccbd 4c71 7a3d
000001a0: 07d7 92bc d019 84bc 876f 1ebd da22 f3bd
000001b0: 8e32 51be c83c 32be 9c9f 0dbe 7d23 cebd
000001c0: 1755 1bbc f8cb 103e 52e0 a5bd 78ea 443d
000001d0: 1470 123e 5436 4bbd 9f10 efbb 4af1 923d
000001e0: ec7d b43d 50a8 0bbc 3824 f33d f079 ecbd
000001f0: 00af 4dba 2017 893c 8794 06be 73d6 1dbe
00000200: 1497 a33d aa3c 283c 8084 d23c a8a4 1bbd
00000210: 1417 f63d 06fd 0c3e 082a 99bc 843e 47bd
00000220: 48d2 7abd b089 553d e214 013e ea47 4bbd
00000230: 8848 f93d 9daa 53bd a66c 063e a2e9 20bd
00000240: 54af 9ebd ab33 6dbe f621 77bd 9781 74be
00000250: 87fe b2bd c0d5 d83b cf57 00be ae5c 11bd
00000260: f126 18bd 1813 b73d da1e afbd 0820 12bd
00000270: 9629 49bb 4b28 89bd b002 00be 7208 d2bd
00000280: be2d 44bd 4ade cf3d 7db4 d9bd 70b8 9a3d
00000290: 3c6c b33d 14ec 023e 607a a8bd 7c4c e23d
000002a0: 8432 103d 5687 c9bd 2359 d6bd 182f 063e
000002b0: 78a9 a43d a671 0b3e bf11 08be f7a3 fcbc
000002c0: d880 bb3c 5cb5 5ebe c83a f03d 1a02 ef3c
000002d0: acb1 9a3d f3be f1bd 684c 0f3d f05e 9ebc
000002e0: dc5d 08bd 9c3c 083d e8ca 853d 655c 4abd
000002f0: dc0b 4a3d ac5f ffbd 00ad 7dbc 28b1 413d
00000300: 465f 24bd ed54 92be 9448 803e 5d1d e3bc
00000310: 4311 13bc a84c b73c e587 41be f838 d43c
00000320: 13de 59be c0d8 51bb bf49 083e 9a20 073e
00000330: 0557 ef3c 89df 5ebd 6e73 19be 50fa 5dbc
00000340: 0537 0c3c 3a09 51bd 565f dcbd 66ce efbd
00000350: 402c 1f3b 8659 c9bd cc45 10be 7056 f93d
00000360: 8410 0d3e b45d 6c3d de2d 0c3e da00 95be
00000370: 8a74 edbd ceac 74bd 8776 9ebd d1b6 63bd
00000380: fa4a 0fbe 6113 8fbb 686c ec3d 1f15 d6be
00000390: 20e3 d9bd 2a8d 1ebd b3bc 95be 0e32 103e
000003a0: b88d 903d f246 83bd 4ed0 e4bd 2005 b1be
000003b0: 1c30 e7bd 68fe 9cbd 1032 b03c 8c94 35bd
000003c0: f7f6 56be 4a72 913c 4013 883c a92f fa3c
000003d0: 6f01 55be a021 853c c164 0b3d bc49 493d
000003e0: e91e 25be e696 8fbd b540 8ebd 2019 e53b
000003f0: 1b87 583c c88e 793d 440d 503d cbae 68bd
-0.23249175 -0.14311872 -0.14406645 0.0135149285 0.018740948 -0.12040901 0.0386788 0.014633566
-0.21484895 -0.11927883 -0.026066743 -0.042560197 -0.011539517 0.037187293 0.01650548 -0.105026655
-0.039230347 -0.14022176 -0.22543244 0.06956103 -0.03683939 0.019952253 -0.05659766 -0.14092503
-0.058406986 -0.12805292 -0.0017594844 0.09629007 0.04373893 -0.079798296 -0.22791119 -0.14544721
-0.055405878 0.0177155 -0.04099501 0.21673454 0.036002114 -0.1318412 0.007582236 -0.0795923
0.09345719 0.09565854 -0.12926582 0.084725805 -0.09765033 -0.026599469 0.12704346 0.024788767
0.09152436 -0.06649792 0.29560563 0.18223052 0.13811326 0.096996814 0.12191725 -0.065797515
-0.039467324 -0.13917531 0.24664006 0.37677646 0.045161046 0.29963705 -0.018084928 0.17433491
0.20802452 -0.28149432 0.09461989 -0.28068304 -0.0409965 -0.05863507 0.09141366 0.060444012
-0.08158859 -0.03733681 -0.14397405 -0.30620807 0.07895915 0.06924686 -0.103914425 0.13194883
0.08171512 0.088200755 0.039802745 -0.04844112 -0.100995466 -0.050212912 0.025328528 0.0572972
-0.13969398 0.054255486 -0.093647145 -0.24232328 0.12390342 0.03438833 -0.11945923 -0.029031582
-0.12188945 -0.08863061 -0.024972163 -0.23682295 -0.013368367 0.0710461 -0.099864 0.061143205
-0.017924799 -0.01612559 -0.03868058 -0.11871882 -0.20429441 -0.17405999 -0.13830417 -0.100653626
-0.009480736 0.14140308 -0.08099426 0.04807517 0.14300567 -0.04961236 -0.0072956826 0.071749285
0.0881308 -0.008524016 0.118721426 -0.11546695 -0.00078462064 0.01673466 -0.13142596 -0.15413837
0.079878 0.01026837 0.025697947 -0.037998825 0.120161206 0.13768396 -0.0186968 -0.048643604
-0.061235696 0.052133262 0.12605622 -0.04962913 0.12172037 -0.05167638 0.13127384 -0.03928531
-0.07748285 -0.23164241 -0.060335122 -0.2387756 -0.087399535 0.006617278 -0.12533496 -0.035488777
-0.037146512 0.08939189 -0.08550806 -0.03567508 -0.0030694953 -0.066971384 -0.12501025 -0.10255517
-0.047895186 0.1014982 -0.106301285 0.0755471 0.087608784 0.12785369 -0.08226466 0.110497445
0.035204425 -0.098402664 -0.1046622 0.13103902 0.08040136 0.13617572 -0.1328802 -0.030839903
0.022888586 -0.2174887 0.11729962 0.029175807 0.075534195 -0.11803999 0.034984976 -0.01933238
-0.033292636 0.033260927 0.06532842 -0.04940452 0.049327716 -0.1246942 -0.015483141 0.04728809
-0.040129922 -0.28580418 0.25055373 -0.027723962 -0.0089762835 0.02237542 -0.18899496 0.025906071
-0.21276121 -0.0032020062 0.13309382 0.1319603 0.029216299 -0.0544124 -0.14985439 -0.013548449
0.00855804 -0.05103419 -0.107603714 -0.11709289 0.002428785 -0.09831528 -0.14089125 0.1217469
0.13775831 0.05770655 0.13689372 -0.29102212 -0.11594494 -0.059735112 -0.07737451 -0.05559427
-0.13993445 -0.004366324 0.11544114 -0.4181299 -0.10639024 -0.038708843 -0.2924553 0.14081594
0.07058281 -0.06410016 -0.111725435 -0.34574223 -0.11288473 -0.07665712 0.021508247 -0.04433112
-0.20992647 0.017754693 0.016610742 0.030540304 -0.20801328 0.016251385 0.034031633 0.049142584
-0.16125073 -0.070112035 -0.06945936 0.0069915205 0.013215805 0.060927182 0.0507939 -0.05680732

network.2.bias f4 [48]
00000000: a355 44be c34c 64bd bc97 c2bd 12eb 8bbc
00000010: f2cd 72bc 09b6 033c 572b 55be 95fc 36be
00000020: be5c c7bd 171f 64bd 80aa dc3c cb97 ca3d
00000030: 0406 9dbd d0de 093c 4fc8 80bc b4ed 023e
00000040: 353b e23d 08fa bf3c 59cb 373c 0bbc b8bd
00000050: 4356 8bbc 1cba 00be 4f4f 41be 82f2 d43c
00000060: 28a6 0bbe a8cb df3c eb4f 22be c8e6 9c3d
00000070: 0760 0ebd aea6 62bc 64c2 d3bd d80a cebd
00000080: 32d4 acbd b683 2ebe ce46 933d ced8 01be
00000090: b946 63bd 294e 08be 1ca4 cbbd 6345 4e3c
000000a0: 279b 063d 58d1 643b 3905 d0bd ed0f 0bbe
000000b0: 9079 b8bd d796 86bd 7fb7 d8bd 9c72 e43d
-0.19173293 -0.05573727 -0.09501597 -0.017079864 -0.014819609 0.008039006 -0.20817314 -0.1786979
-0.09734486 -0.055693712 0.02693677 0.098922335 -0.07667163 0.008414939 -0.015720515 0.12785989
0.11046449 0.023434654 0.011217915 -0.09020241 -0.017008906 -0.12570995 -0.1887791 0.025994543
-0.13637602 0.02731879 -0.15850799 0.076612055 -0.034759548 -0.013833685 -0.103398114 -0.10060662
-0.084389105 -0.17042431 0.07191239 -0.1268036 -0.05548737 -0.13311066 -0.09943411 0.012589785
0.03286281 0.0034914818 -0.10157246 -0.13580294 -0.09007561 -0.06571739 -0.10581874 0.111546725

network.4.weight f4 [1, 48]
00000000: b639 6f3b b337 243e 1e41 c2bb 01e4 38bd
00000010: 9c7a b0bc baaf 05bd 04ea 08bd 6fc7 85bd
00000020: f868 f8bc 1b3c 9cbb 485f f9bc 81c5 7f3d
00000030: 2568 af3d 96d6 113e 247d 1a3e 86a4 d43d
00000040: c887 8a3d bc92 123e af2a 62bd cfcb f03d
00000050: 94f1 9abd c2f7 7ebd 3d72 9b3d 4665 8d3d
00000060: 1c2e b73d e0da 27bc b0ec 083d 9c54 29bd
00000070: 7028 693d 0bc1 993d 23a3 d7bd c4ca cebc
00000080: 5cfb b53c a0b8 e4bd fc45 6c3d 88f8 e6bd
00000090: 08ab 91bd 70a0 1e3d 9abb 173d dad2 debc
000000a0: 24f9 11bd a1ea cbbc b3e4 7abd 6591 733d
000000b0: 84de db3d f51a d13d 9969 9c3d f346 e0bd
0.0036502904 0.16036873 -0.0059281727 -0.045139316 -0.02154284 -0.03263829 -0.0334263 -0.065321796
-0.03032349 -0.0047679073 -0.030440941 0.062444214 0.08564786 0.14242014 0.150868 0.10382943
0.067641795 0.14313787 -0.055216487 0.117576234 -0.075656086 -0.062248 0.075901486 0.06904082
0.089443415 -0.010245055 0.033428848 -0.041340455 0.05692333 0.07507523 -0.10529163 -0.02524317
0.022214584 -0.11168027 0.05768393 -0.11277872 -0.071127 0.038727224 0.037044145 -0.027200151
-0.03563799 -0.024892153 -0.06125326 0.05946483 0.10735801 0.1021022 0.07637329 -0.109510325
