transfer_model_final_best.pth (torch, 7561 bytes, 7 tensors)

network.0.weight f4 [20, 1]
00000000: 900a d2bd 668c 36bf e416 efbe 18cb cabe
00000010: e09b d0be c0c5 5ebf 6b0b 1ebf 45ab 05bf
00000020: 408c 35bf 64e5 96be f667 76bf a0af 7cbd
00000030: 3ee8 a0be 1869 273f 8073 27bc e6dd a93f
00000040: 012b 56bf a0b5 153e e86b e63e c3f4 48bf
-0.10255921 -0.7130798 -0.46697152 -0.39608073 -0.40743923 -0.8702049 -0.6173617 -0.5221446
-0.7091713 -0.29471886 -0.9625238 -0.061690927 -0.31427187 0.65394735 -0.010220408 1.3270843
-0.8365937 0.14620066 0.450042 -0.78498477

network.0.bias f4 [20]
00000000: 805a 2bbc 2345 363f e12d ee3e 3036 27bf
00000010: b849 79be c2bf 71bf 9fb2 1d3f a1eb 043f
00000020: a8b9 97be 4c2b 78bf 5041 2dbf 7453 49bf
00000030: 59f3 a03e bcef 56bf fcc1 e7be 8a97 403f
00000040: 0feb 553f 5ca6 f6be 67e7 4c3f e1ef bbbd
-0.010458589 0.71199244 0.46519378 -0.6531706 -0.24344528 -0.94433224 0.6160068 0.5192204
-0.29633832 -0.96941066 -0.67677784 -0.78642964 0.3143566 -0.83959556 -0.45265186 0.7523123
0.83561796 -0.48173797 0.8004059 -0.09176613

network.2.weight f4 [20, 20]
00000000: e147 5cbe 7982 acbe 6e4e efbd 9727 50be
00000010: 081a 8ebd 301b d8bd 95f6 edbe 9e21 603d
00000020: 6469 16bd 780a aa3d f072 333e e00d ab3b
00000030: da09 32be 7040 eabd a42c 2cbd 4b90 7c3e
00000040: fa4a 89be 3419 f63d 56f5 393d e3ca 023e
00000050: 08e7 413e 2a0b 4b3e 74b1 50bd bf92 42be
00000060: 9408 f33d 485f 633d 6472 aa3d 98ab 90bc
00000070: 00c7 3e3e 6289 9dbd 804d b13d 906f 083e
00000080: 60dc e4bd 6098 693d 8a6c 523e e0bd 053d
00000090: b8bc 573d 6eff 233e 080d 85bc e03f 6a3c
000000a0: a0b7 00bd c2dd 1bbf 579a 2e3d 8aea 4b3e
000000b0: 48ae 923c 149e 5ebe f914 02bf 56f1 7c3d
000000c0: 00fc 46bc 386f 6a3d b4dd 2c3e fade 223e
000000d0: 12b6 c1be 9427 37bd 5c13 5dbd fda3 043e
000000e0: 80d1 c7be c06f 87bc 4b31 563d cdf5 3a3e
000000f0: cebf 1a3e 75d1 3cbe c070 e43c 12b4 303e
00000100: f61d d4bd 0c55 9b3d 4a46 563e f8c9 bb3d
00000110: cede 603e 9c6c 60bd 24f3 2d3e 1c5f fd3d
00000120: 0c5f 91bd 7c3e 92bd b9c9 57be 6e8d e5bd
00000130: 3cca 023e 543b 7fbd e8c8 163d c9b6 28be
00000140: a0fe acbd 02ff 43be da69 66bc 4418 a73d
00000150: c87b d63c 8cec 5abe ab0a 96be 3926 23bd
00000160: 9835 1a3e 1043 2abe c0d1 b5bd 36f1 063e
00000170: 27df 38bf d235 563e 27b5 00be 72f3 023d
00000180: 9cd4 aebd b0d2 c93d 178b 5ebe c02f 383e
00000190: 7ce6 dc3d fde6 e1be 2a28 0abe 545f 23bd
000001a0: 1816 743d 10dc bfbc f133 67be 3a6b 0cbe
000001b0: 548c fcbd 70c7 073c 1888 173d b254 243e
000001c0: 3626 8bbe b00f 063d 20ee db3d 5445 0bbe
000001d0: 43f5 7bbe d8b8 103d a3a7 a13d 3a5c 00be
000001e0: 3e28 11be d82b 3b3d b339 fabd e2d4 abbd
000001f0: 42de 4abe 7107 64be 7417 4d3e 5d1a 09be
00000200: 64ab 3b3e f085 653d 787d ac3d d802 1e3d
00000210: f061 643e aac3 22be 6c9c c2bd 48bf 3fbe
00000220: 80c8 c5bd 8a38 bbbd 4211 ebbd fe15 463e
00000230: b050 acbd 1211 d7be 14b8 81be 90e8 fb3c
00000240: 40df 8abb de47 32be 7abc 15bf badd 60be
00000250: 6067 88bc 7700 55be 2504 5abe 4031 a83b
00000260: cc14 ecbe 3c9c 70bd 9a97 493e 25c3 603e
00000270: 128e 39bd 2eff a8bd 3061 7fbe 34e3 c2bd
00000280: 7c5c 3fbe ebed 78be 47b7 31be cc27 8dbd
00000290: a81a 53bd 301d 353c c845 5dbe 151e 033e
000002a0: aec6 4cbe 8c62 4abe c018 1cbe e6e3 aabd
000002b0: 2a78 c2be 9618 053e 2663 51be c4f0 cf3e
000002c0: ad12 87be 4823 5d3e 1081 503e 953c 38bd
000002d0: e23b 203e eb62 82be 61bb 7d3d 36ca 3c3e
000002e0: 9f72 0abe 323b 643e c3c2 22bf aafa c23c
000002f0: d407 2f3e 3219 633e b063 3f3c ae8d f3bd
00000300: 1469 37bf 9a09 06be 38c6 3b3d 2eee 3dbe
00000310: 98c6 32bc a8e6 29bd fee5 f33d 33fa 0dbe
00000320: ed2e 1ebe bc29 063d 57b4 9abe e8d3 ff3d
00000330: 12f8 4f3e f881 13be 55e7 32bd 1ca2 223d
00000340: 620d 1c3e e09a 69bd 74dc 1e3e 7efd 603e
00000350: ca64 82be 5083 313d e2bf 343e 60ac 6cbe
00000360: d923 48bd 64eb 9e3d a6c0 03be a41d 11be
00000370: 1886 253d 8cc0 2cbf 0d58 17bf 68a0 6b3d
00000380: 3114 13be 1070 1f3e 03af 23bf ab1d 2cbf
00000390: aaf0 4fbe b45d 7ebd ee66 533e 7c38 40be
000003a0: 1950 9bbe 300a af3c fee3 123e 3418 d1be
000003b0: fdb1 27bf aeb2 423e 116a d1be 8257 0abe
000003c0: 2066 f23c 6281 5f3e 2784 96be a59e 2dbe
000003d0: a05b 503d 605d 783c a478 813d 2089 98be
000003e0: 8754 4dbe 40d9 b1bd 8c72 13be f65a 243e
000003f0: 31d7 fbbd 744a 09be fccf 99bd 5e46 0c3c
-0.21511795 -0.33693293 -0.11684881 -0.20327602 -0.06938559 -0.105520606 -0.4647719 0.05471956
-0.036721602 0.08302778 0.17524314 0.00522016 -0.1738657 -0.11438072 -0.04203476 0.24664418
-0.26815015 0.12016526 0.045399986 0.12772708 0.18935788 0.19828478 -0.050950482 -0.19001292
0.118668705 0.05551079 0.083225995 -0.017659947 0.186306 -0.07692219 0.0865736 0.13323808
-0.11174846 0.05703008 0.20549217 0.032651782 0.05267021 0.16015407 -0.016241565 0.014297456
-0.03142512 -0.6088525 0.04262766 0.19913688 0.01790537 -0.2173999 -0.5081325 0.061753593
-0.012145042 0.057234973 0.16881448 0.15905371 -0.3783422 -0.04471548 -0.05397354 0.12953182
-0.39027023 -0.016532779 0.052293103 0.18257828 0.1511223 -0.18439277 0.027885795 0.17256191
-0.10357277 0.07584581 0.2092525 0.09169382 0.21959993 -0.054791078 0.16987282 0.12371656
-0.07098207 -0.07140824 -0.21073045 -0.11208616 0.12772459 -0.06231244 0.036812693 -0.16475977
-0.08447003 -0.19140247 -0.014063323 0.08158925 0.02618207 -0.21379298 -0.29305014 -0.039831374
0.15059507 -0.16627145 -0.08877897 0.13177952 -0.72215503 0.20918968 -0.12569104 0.03197045
-0.08536646 0.098546386 -0.21732746 0.17986965 0.10786149 -0.44121543 -0.13491884 -0.039885834
0.059591383 -0.023420364 -0.22578408 -0.13712779 -0.12331453 0.008287296 0.036995023 0.16047934
-0.2717759 0.032729805 0.10738778 -0.13600665 -0.24605279 0.03533253 0.07893302 -0.12535182
-0.14175507 0.04569611 -0.122180365 -0.083902135 -0.19811347 -0.22268464 0.20028478 -0.13388963
0.18327099 0.056035936 0.08422369 0.03857693 0.22302985 -0.15894952 -0.09502491 -0.18725312
-0.09657383 -0.09141643 -0.11477901 0.19344327 -0.084138274 -0.4200521 -0.25335753 0.030750543
-0.0042380393 -0.17410228 -0.5849072 -0.21959582 -0.016650856 -0.20800959 -0.21290644 0.005132824
-0.46109617 -0.058742747 0.19686738 0.21949442 -0.045301504 -0.08251797 -0.24939418 -0.09515992
-0.18687624 -0.24309509 -0.17355071 -0.06892356 -0.051539093 0.011054322 -0.2160865 0.12804444
-0.19997665 -0.19764155 -0.15243816 -0.083442494 -0.37982303 0.1299766 -0.20447978 0.40613377
-0.26381436 0.2159549 0.20361733 -0.04497965 0.15647843 -0.25466093 0.061946277 0.18436512
-0.13520287 0.22288206 -0.6357843 0.023801167 0.1709283 0.2217758 0.011681482 -0.11892258
-0.7164471 -0.130896 0.045843333 -0.1854789 -0.010911606 -0.041479737 0.11909102 -0.13864975
-0.15447588 0.032754645 -0.30215713 0.1249159 0.20309475 -0.14405048 -0.043677647 0.03970538
0.1523948 -0.057032466 0.15513784 0.219717 -0.2546752 0.04333812 0.17651322 -0.23112631
-0.048862312 0.07759741 -0.12866458 -0.14171463 0.040411085 -0.67481303 -0.5911873 0.057526022
-0.14363171 0.15570092 -0.6393892 -0.6723277 -0.2030665 -0.06210108 0.20644733 -0.18771547
-0.30334547 0.021367162 0.14344785 -0.40838778 -0.65505964 0.19013473 -0.40901235 -0.13509944
0.029589713 0.218267 -0.293977 -0.1695505 0.05086863 0.015158981 0.063218385 -0.29792118
-0.20051776 -0.08684015 -0.14399165 0.16050324 -0.12296904 -0.13407308 -0.07510373 0.008561699

network.2.bias f4 [20]
00000000: 6c3b ef3d 2b31 5bbe a58f 443e 67eb 15be
00000010: 44d1 23be 001b be3d 56d6 44be e736 35be
00000020: 69e1 193e 3d80 533b 1f12 d3bd 32b0 24bf
00000030: a34b 86bc 58e7 c03c ce12 babd 66fb cf3d
00000040: 6110 203d 0b03 d3bd 03e6 d73d 24f8 503e
0.11681256 -0.21405475 0.19195421 -0.1464058 -0.15997797 0.092824936 -0.19222388 -0.17696725
0.15027393 0.003227248 -0.10306191 -0.6433135 -0.016393488 0.023547813 -0.09085618 0.10155372
0.03907812 -0.10303315 0.10541918 0.20407158

network.4.weight f4 [20, 20]
00000000: abd8 febd 06fe c8bd 2633 d2bd 0052 0eba
00000010: 8f55 01be 329a 5b3e 1384 e9bd f68b 45be
00000020: 81a0 20be 5e28 ecbe 4fb2 57be 32d3 473e
00000030: 79b9 98be e67b 01be 1de2 69be ac3a 2dbe
00000040: 84dd c2bc 1a77 c9bd 4b54 18be 1015 4b3d
00000050: 0860 2f3d dafc 2dbe 30a9 953d c097 a03d
00000060: 5cf1 c9bd 4212 563e 0928 3cbe d064 03bd
00000070: dd16 64be bcbd 3abd 4a07 0fbe d193 60be
00000080: f854 14be a85c 2fbe 0c1c c83d 2e1c 9dbd
00000090: 4fdd e2bd fee5 023e c803 d43d efec 62be
000000a0: 2e88 50bd af7f 00be 363d 3a3e 80d5 32bd
000000b0: 9e68 8f3e f875 29bd cdac 16be 2a11 d8bd
000000c0: 6038 5e3e 9d93 4d3e 40e1 2e3e 36d3 bc3e
000000d0: 8564 59bd b40b d2bd 21ea c23d d16c 55bd
000000e0: 95be 083e 525a 5b3e 85fc 1b3d d0ed 613d
000000f0: 685a 6fbd 9b95 4abe c626 563e 34f0 443e
00000100: cff0 4ebe 2c52 223e 44c9 203e 5c49 3c3e
00000110: 80c8 7dbd c9f3 58be c073 0e3e 64ee f53d
00000120: a0eb e53b f643 51be 74d1 ffbd ddfb 61be
00000130: a0d2 c9bb dc58 553e 3098 163c 0823 00be
00000140: a10a c93b 54b4 df3d aadc 61bd 70f7 dd3c
00000150: de03 933e 160a 66bc 00f9 2f3d aee2 3c3e
00000160: ff07 293d a82a 16be 0428 933e 7068 0b3f
00000170: a3d2 d73d a4c0 3bbd a7ca 9b3d ced3 013d
00000180: d66f bc3e efdd 45be 4801 903e 84cd 603e
00000190: ec24 bbbe 42a6 19be e260 c6be 7432 0c3e
000001a0: cd7f b6bd 289d a83d 6c0a f33d abd8 17bd
000001b0: 9ff0 87bc db42 6dbe ae2b 22bb 4082 1abc
000001c0: 9104 943d 0c89 223e 8419 5abd 66e6 36bd
000001d0: e94d 26be dc61 77bd 7ae1 1fbd ec6a 1b3e
000001e0: f4f4 463e dceb c43d 5036 013e 6cee 47bd
000001f0: 928f efbb 7855 4fbe 8404 223e f7d6 22be
00000200: 3b7a 843e 0b75 0f3e 65cc f23d a368 143f
00000210: c37c db3d 00c7 dd3d c40e efbc c748 1abd
00000220: 5fab ba3e 8e77 87bd 9e47 843e 14af 1e3e
00000230: fcfb c53d 1669 373e 99cb d0bd 10b9 9b3c
00000240: 27d0 07be b26d e7bd 78b6 ab3d 3edf 143e
00000250: c662 3fbe eca4 4abe a056 e43d 0021 17ba
00000260: 7848 3c3d 20c2 7abd 7769 e0bd 3e0e 3bbe
00000270: ccce af3d 00ab fdbb 6a6e 47be cec7 0dbe
00000280: 925e bd3d e1fb 4fbe 7236 01be 34b7 a8bd
00000290: 1f0f 75be 7ca8 54bd 0c5c 633e 0fc1 90be
000002a0: 9105 3fbe 4467 79be 3aa4 31be c418 06bf
000002b0: b421 08bd 86a5 0abe af2a 84bd 3011 bd3d
000002c0: 0b42 45be e07d 99bd f818 8f3d a0a5 583c
000002d0: 5aac 87be b4de b9bd 1bc3 afbd f40f b43d
000002e0: ba42 2bbe dec6 033e e600 5f3e f9df 7ebd
000002f0: 8c52 cebc 045e 61be 606a 02be 7027 713d
00000300: 8396 1fbe bc3b 423e 5aad 09be 38f1 4abe
00000310: 1223 a7bc 203a 93bd cb4d 9fbe 608a 7cbd
00000320: e164 81be 7c9e 50be 9e2b 793d 3807 b2bd
00000330: c1f8 c23d faad 10be f884 0e3d 8d6f eb3d
00000340: a9a6 03be 49f7 08be 28ab 25be d89c 69bd
00000350: ac34 05be 5cbc 09be 46ba 513e 0c24 85bd
00000360: 3288 1cbe cb42 2ebe e89b 9abc 76ef 4abe
00000370: 5043 47bd 565e 89bd eaaf 143d 010b cabd
00000380: 9b71 7bbe 2256 c8bd 7303 13be 6546 8bbe
00000390: 346d 4abd eb77 d5be 2324 ccbd 90bb 88bd
000003a0: 0f01 2a3d de4b 143e 3150 8abe 41bc 983c
000003b0: 3075 b7be 5b8c 53be fe45 433d 0026 1cba
000003c0: 980b a2bd 207f f13d b0bf 3c3e a043 e63d
000003d0: 1ba8 013e 81c1 853d 80a2 c53c 54fd 45be
000003e0: 96a1 b03d dbd7 723d dc23 853e 26ef 1d3e
000003f0: 9680 dcbd 287b b03d b907 4d3d fd3b bd3d
-0.1244367 -0.09814076 -0.10263662 -0.0005429089 -0.12630294 0.2144554 -0.11402144 -0.19291672
-0.15686227 -0.46124548 -0.21064113 0.19514158 -0.29829004 -0.1264492 -0.22840162 -0.16916913
-0.023787268 -0.0983717 -0.14875905 0.049580634 0.042816192 -0.16990986 0.073076606 0.07841444
-0.09860489 0.20905402 -0.18374647 -0.032078564 -0.22274347 -0.0455911 -0.13967624 -0.21931387
-0.14485538 -0.1712519 0.097709745 -0.076713905 -0.110773675 0.12783048 0.10352284 -0.22160695
-0.05091112 -0.12548707 0.18187413 -0.04366064 0.28009504 -0.04137227 -0.14714356 -0.10550149
0.21701193 0.20075841 0.17078114 0.3687989 -0.05307438 -0.102561384 0.09517313 -0.05210573
0.13353951 0.21421173 0.03808262 0.055158436 -0.058435827 -0.19783632 0.20913228 0.19232255
-0.20209049 0.15851659 0.15701777 0.1838736 -0.06195879 -0.21186747 0.13911343 0.1200836
0.007016614 -0.20436081 -0.12491122 -0.22068734 -0.0061591417 0.20834678 0.009191558 -0.12513363
0.0061353003 0.10923067 -0.055142082 0.027095526 0.28713888 -0.014040491 0.042962074 0.18445846
0.04126739 -0.1466471 0.28741467 0.54456234 0.10538223 -0.045838013 0.07607012 0.031696133
0.36804074 -0.19322942 0.28125978 0.21953398 -0.36551607 -0.15004829 -0.3874579 0.13691121
-0.08911095 0.082331 0.11867222 -0.037071865 -0.01659423 -0.23170035 -0.0024745273 -0.009430468
0.072274335 0.15872592 -0.05324699 -0.04465332 -0.16240658 -0.06039606 -0.03903339 0.15177506
0.1942938 0.09615299 0.12618375 -0.04881136 -0.007310816 -0.20247447 0.15822035 -0.15902315
0.25874504 0.14009492 0.118553914 0.5797216 0.10717156 0.10828972 -0.029181845 -0.037667062
0.3645887 -0.066146 0.2583589 0.15496475 0.09667203 0.17911181 -0.10195083 0.019009143
-0.13262998 -0.113002196 0.083844125 0.14538285 -0.18690023 -0.19789475 0.11149335 -0.000576511
0.04596755 -0.06122029 -0.10957616 -0.18267152 0.08584365 -0.007741332 -0.19475713 -0.1384575
0.092465535 -0.20310928 -0.12618425 -0.08238068 -0.2393155 -0.05191849 0.22203082 -0.28272292
-0.18654467 -0.24355799 -0.17347804 -0.5238154 -0.033235267 -0.13539705 -0.06453454 0.09231794
-0.19263475 -0.07494712 0.06987184 0.013223082 -0.2649868 -0.090756804 -0.08582135 0.08792105
-0.16724673 0.1286883 0.21777686 -0.062225316 -0.025185846 -0.2200852 -0.12735891 0.0588755
-0.1558476 0.189681 -0.13445035 -0.1981858 -0.020402465 -0.07188821 -0.3111404 -0.061655402
-0.25272277 -0.20372957 0.060832612 -0.08692783 0.09520102 -0.14128867 0.034794778 0.11495886
-0.12856545 -0.13375582 -0.16178572 -0.057034343 -0.13008374 -0.1345076 0.20481214 -0.06501016
-0.1528633 -0.17017667 -0.01887317 -0.1981791 -0.04864818 -0.06707446 0.036300577 -0.0986538
-0.24555056 -0.097820535 -0.14356785 -0.27202144 -0.04942055 -0.41693053 -0.0996783 -0.066764
0.041504916 0.14482066 -0.27014306 0.018644454 -0.35831594 -0.2065901 0.04767417 -0.000595659
-0.079123676 0.11791825 0.18432498 0.11243367 0.12661783 0.065310486 0.024125338 -0.19334918
0.0862457 0.059287887 0.2600392 0.15423259 -0.10766713 0.0861724 0.050056193 0.092399575

network.4.bias f4 [20]
00000000: 7432 dabd b895 98bc 35cb 633e 2c29 8abd
00000010: 231b 133e e574 ebbd d6f7 4bbe 42bc 23be
00000020: d6c7 983e 0219 85bb 4005 c2b9 c13a c3bd
00000030: 5dd9 3fbd fdf7 e83b a8ca d6bd c38d 0c3e
00000040: 8b46 81bd ce30 56be 900c 7337 34af 543d
-0.106541544 -0.018626079 0.22245486 -0.06746134 0.1436582 -0.11496905 -0.1991876 -0.15989783
0.29839963 -0.004061819 -0.00037006475 -0.09532691 -0.046838153 0.0071096406 -0.10487872 0.13725953
-0.06312283 -0.20917055 1.4486854e-05 0.0519249

network.6.weight f4 [1, 20]
00000000: 72e9 0b3d 500b 7dbc 8914 263e 4091 09be
00000010: 62c3 fe3d 0018 a2bc ecc8 fc3d d499 69bd
00000020: 5451 bfbd fe29 71bd 50e1 003d b6da 4cbc
00000030: 1382 2fbd 4817 e83b a35e 3b3d 5e38 763e
00000040: fd60 f63c 8dcb 33bb 631a 963e 9ded ff3d
0.034158178 -0.015444592 0.16218771 -0.13434315 0.1243961 -0.019786835 0.1234301 -0.057031468
-0.09341684 -0.058877937 0.031464875 -0.012503317 -0.042848658 0.0070828535 0.04574455 0.2404494
0.030075544 -0.0027434558 0.29317006 0.12496493
