transfer_model_final_limited.pth (torch, 4369 bytes, 5 tensors)

network.0.weight f4 [13, 1]
0	0x3f27a5b1	0.654872
1	0x3e774e00	0.24150848
2	0x3e3f7150	0.18695569
3	0xbe935e4c	-0.2878288
4	0xbf2b9780	-0.67028046
5	0x3f8599f5	1.0437609
6	0x3d27bd80	0.040952206
7	0xbe88e6e0	-0.26738644
8	0x3e896f9c	0.26842964
9	0x3ecf38c8	0.40473008
10	0x3f4aa99f	0.7916507
11	0x3dcfe080	0.10150242
12	0xbe9895d6	-0.29801816

network.0.bias f4 [13]
0	0xbef809c4	-0.4844495
1	0xbede596c	-0.43427598
2	0xbe8e7174	-0.27820933
3	0x3f7bf353	0.9841816
4	0x3f40672a	0.75157416
5	0xbc9b425b	-0.01895254
6	0xbf1fae4c	-0.6237533
7	0x3e888134	0.26661074
8	0xbe8eb548	-0.27872682
9	0xbeddbe3c	-0.433092
10	0xbebeba69	-0.37251595
11	0xbe189858	-0.14901865
12	0x3e0dce07	0.13848124

network.2.weight f4 [13, 13]
0	0x3e2b6727	0.16738568
1	0x3df5065c	0.119641036
2	0xbc29b520	-0.010358125
3	0xbbcd0ff6	-0.006258006
4	0xbc36937e	-0.011143563
5	0xbe2a0978	-0.16605175
6	0x3da9420c	0.082645506
7	0xbdd506f3	-0.10401716
8	0xbe0d1231	-0.1377647
9	0x3e3b20dc	0.18274254
10	0x3eb708d0	0.3574891
11	0xbe3666f8	-0.17812717
12	0xbe15d815	-0.1463321
13	0xbdf8e6b2	-0.12153377
14	0x3d837468	0.06418687
15	0xbda4a4fc	-0.08039281
16	0xbcc2ad90	-0.023764402
17	0x3e44db0f	0.19224189
18	0xbeafcd85	-0.34336486
19	0xbd48d358	-0.049029678
20	0xbe237ece	-0.15966341
21	0x3cae76c0	0.021296859
22	0xbdbf650c	-0.09345445
23	0xbea157a3	-0.31512174
24	0xbe7fc316	-0.24976763
25	0x3ea84ed7	0.3287265
26	0x3e432f48	0.19061005
27	0x3e868ce7	0.26279375
28	0x3e4caac0	0.19987011
29	0xbdc5a228	-0.096500695
30	0xbe21c39a	-0.15797272
31	0xbdcffb4c	-0.10155353
32	0x3e414a0e	0.18875906
33	0x3da8f3f4	0.08249655
34	0xbd5bb880	-0.05364275
35	0xbcd2a3d0	-0.025712878
36	0x3e4c839c	0.1997208
37	0xbe7373a7	-0.23774587
38	0xbe83256e	-0.25614494
39	0x3e0e7571	0.13911988
40	0xbe601cd5	-0.21885999
41	0x3e338a60	0.17533255
42	0x3dd58f6a	0.10427745
43	0xbdd999c6	-0.10625033
44	0x3e069e10	0.13146234
45	0xbe5166da	-0.20449391
46	0xbe17cf89	-0.14825262
47	0xbe166d1e	-0.14690062
48	0x3e36f29c	0.17865986
49	0x3ea6742d	0.3251051
50	0xbe7e4b1d	-0.24833341
51	0xbdeb3c55	-0.11486117
52	0x3eb797b1	0.3585792
53	0x3d630408	0.055423766
54	0x3d8a3970	0.067492366
55	0x3e9247a6	0.28570288
56	0xbe967503	-0.29386148
57	0x3ebe540f	0.37173507
58	0xbd07527c	-0.033037648
59	0xbe87a3ae	-0.26492065
60	0x3dbea290	0.0930835
61	0xbe840d49	-0.25791386
62	0x3e79be2a	0.24388948
63	0xbe4889e9	-0.19583859
64	0xbcc7f35d	-0.024408037
65	0x3d97bf0c	0.07409486
66	0x3e62fbec	0.22166413
67	0x3e8d7f4b	0.2763618
68	0x3e2a5f8e	0.16638014
69	0xbe4b61cb	-0.19861524
70	0xbd35bd47	-0.044369962
71	0xbe062cff	-0.13103102
72	0x3e8440f6	0.2583081
73	0x3e3c00c6	0.1835967
74	0xbe81bfcb	-0.2534164
75	0xbe3e0cf2	-0.18559626
76	0xbdc13fae	-0.09435974
77	0x3e225d6a	0.15855947
78	0x3db76be8	0.08956128
79	0x3c2c4a40	0.010515749
80	0xbd4bfb78	-0.049800366
81	0x3e44501c	0.19171184
82	0x3ecb94d5	0.39761987
83	0xbea3632c	-0.319116
84	0x3e3e360a	0.18575302
85	0x3dc4b5d6	0.09604995
86	0x3e7679f2	0.24069956
87	0x3d1947d0	0.037422
88	0x3da989e6	0.08278255
89	0xbe524b96	-0.20536646
90	0x3ddf790b	0.10911759
91	0xbd12c42a	-0.035831608
92	0x3e2ade90	0.16686463
93	0xbe23af2a	-0.15984789
94	0xba9b14fc	-0.0011831815
95	0x3dc7f6ce	0.09763871
96	0x3d1e9a37	0.03872129
97	0x3d46ab98	0.04850349
98	0xbc302ada	-0.010752404
99	0xbd30fae8	-0.043208033
100	0xbe3fb70a	-0.18722168
101	0x3e97ab78	0.29623008
102	0x3e8212ff	0.25405118
103	0xbead8f64	-0.3389846
104	0x3e5ebb66	0.21751174
105	0xbe3432e8	-0.17597544
106	0x3e854833	0.26031646
107	0x3e632f20	0.22185946
108	0xbe9a7041	-0.30163768
109	0x3ee0dd3d	0.4391879
110	0x3db982c4	0.09058145
111	0xbe7d2a35	-0.24723132
112	0x3e224aa0	0.1584878
113	0xbe4161d0	-0.18884969
114	0xba38f781	-0.0007055924
115	0xbe5c4aec	-0.21512955
116	0xbef4556a	-0.47721416
117	0x3e75ff46	0.2402316
118	0xbcccddc0	-0.025008082
119	0x3d23c680	0.039984226
120	0xbe824961	-0.2544661
121	0x3e40ab9c	0.18815464
122	0xbe4df037	-0.20111166
123	0x3e6a2cf2	0.22868708
124	0xbe8140ff	-0.252449
125	0xbdbd0284	-0.092289954
126	0x3dfe2c84	0.124108344
127	0x3e686eea	0.2269856
128	0xbd9a183c	-0.075241536
129	0x3def0390	0.11670601
130	0x3d921c0a	0.07134254
131	0xbe069854	-0.13144046
132	0xbe828794	-0.25494063
133	0x3e533367	0.20625077
134	0xbe87bb65	-0.26510158
135	0x3d5ff6b1	0.054678623
136	0x3da01b04	0.07817653
137	0xbeb92686	-0.36162204
138	0x3e4bfcac	0.19920605
139	0x3e48d672	0.19613054
140	0x3ea6413b	0.32471642
141	0x3e29f170	0.16596007
142	0x3d386323	0.04501642
143	0xbcdbcbc0	-0.026830554
144	0xbddd7276	-0.10812847
145	0x3e7bbec6	0.24584493
146	0xbe084d5b	-0.13310759
147	0xbd0529cc	-0.032510564
148	0xbe4072fb	-0.18793862
149	0x3dae8a18	0.08522433
150	0xbe8cca53	-0.2749811
151	0xbe53a245	-0.2066737
152	0xbe5bf3c2	-0.21479705
153	0x3e61b842	0.22042945
154	0x3dc7a274	0.09747782
155	0xbde8cb4e	-0.11366902
156	0xbe720aad	-0.23636885
157	0x3e605716	0.2190822
158	0xbe206ad9	-0.15665759
159	0x3e74e979	0.23917188
160	0x3dee652c	0.11640391
161	0xbdc27032	-0.09494056
162	0x3e4a67e6	0.19766197
163	0x3e72a08e	0.23694059
164	0x3d834f8c	0.06411657
165	0xbe2c49a6	-0.1682497
166	0xbdf03a63	-0.117298864
167	0xbe1279be	-0.14304253
168	0xbd46c7ca	-0.048530377

network.2.bias f4 [13]
0	0x3e4083ac	0.18800229
1	0x3df161db	0.117862426
2	0xbd1dbe1c	-0.03851138
3	0x3eb2dbaf	0.3493323
4	0x3d92797c	0.071520776
5	0x3d50a1b1	0.05093545
6	0x3de158de	0.11003278
7	0x3e8bea02	0.2732697
8	0xbd3f49e3	-0.046701323
9	0xbe81e3e9	-0.25369194
10	0x3ea404f5	0.32035032
11	0x3df513ec	0.119666904
12	0x3c30a31f	0.010781079

network.4.weight f4 [1, 13]
0	0xbc2853b5	-0.010273864
1	0xbdac4fa7	-0.0841363
2	0x3cc4be60	0.02401656
3	0x3eb8b902	0.3607865
4	0x3eb60a83	0.35554895
5	0xbd572449	-0.05252484
6	0xbebb054c	-0.3652748
7	0x3e6fb22c	0.23407811
8	0x3e34e22a	0.176644
9	0x3e870f05	0.26378646
10	0x3e4f704b	0.2025768
11	0xbe0fe7ca	-0.14053264
12	0xbe953728	-0.29143643
