zzzzz_10.pth (torch, 2919 bytes, 3 tensors)

network.0.weight f4 [37, 1]
0.9065403 -0.18366122 0.68316597 -0.54935086 0.54176116 -0.21947548 1.1057403 0.27501523
0.9824498 -0.5189527 -0.8964867 -0.63814765 0.51817137 -0.44209123 -0.9044502 0.015350938
-0.73692775 -0.5260675 -0.45334014 0.78212583 -0.5174388 -0.6494863 0.16068959 0.103099376
0.18672769 -0.41350943 -0.6502908 0.02113545 -0.6674528 0.099968866 0.5653162 -0.97402245
-0.026403785 0.17944674 -0.6869415 -0.41826677 -0.55325276
00000000: 0613 683f b011 3cbe f7e3 2e3f 42a2 0cbf
00000010: dcb0 0a3f 2ebe 60be e688 8d3f ccce 8c3e
00000020: d581 7b3f 16da 04bf 2780 65bf a55d 23bf
00000030: e1a6 043f c859 e2be 0c8a 67bf 8082 7b3c
00000040: 4ca7 3cbf 5cac 06bf 331c e8be 6639 483f
00000050: df76 04bf bc44 26bf d08b 243e c425 d33d
00000060: 8b35 3f3e 82b7 d3be 7579 26bf 4024 ad3c
00000070: 30de 2abf 7abc cc3d 90b8 103f 8959 79bf
00000080: c04c d8bc e3c0 373e 66db 2fbf 1027 d6be
00000090: f9a1 0dbf

network.0.bias f4 [37]
-0.9764725 -0.48687768 -0.5239111 0.17997503 -0.114847675 0.21456009 -0.024269585 -0.6448003
-0.4357459 0.41161522 0.5270649 0.63895345 0.35054576 -0.90759754 0.38745636 -0.09215331
-0.09760976 -0.0616574 0.45031375 -0.25172248 0.25728464 -0.36201525 -0.531363 0.2990322
-0.0470014 0.419546 -0.11310079 -0.053964376 -0.0033705235 -0.19120537 -0.102135316 -0.00010444527
0.20623812 -0.10394432 0.6945257 -0.1660304 -0.06589756
00000000: 1afa 79bf 0848 f9be 0a1f 06bf 604b 383e
00000010: 4235 ebbd a4b5 5b3e 02d1 c6bc a211 25bf
00000020: 161a dfbe 3bbf d23e baed 063f 7492 233f
00000030: bc7a b33e 5058 68bf ae60 c63e e0ba bcbd
00000040: a0e7 c7bd 788c 7cbd 868f e63e c5e1 80be
00000050: d0ba 833e 105a b9be 6807 08bf c01a 993e
00000060: 8a84 40bd bcce d63e 63a1 e7bd c009 5dbd
00000070: 00e4 5cbb 57cb 43be 522c d1bd a109 dbb8
00000080: 1630 533e c2e0 d4bd 70cc 313f e003 2abe
00000090: 4df5 86bd

network.2.weight f4 [1, 37]
0.15436655 -0.116971 0.2343009 -0.013812221 0.066457994 -0.014447022 0.30513525 0.072702065
0.3167916 -0.014277595 0.07313685 -0.19095768 0.121276945 0.042048737 -0.23977943 -0.14950646
0.02148205 -0.09121866 -0.020266311 0.12395959 -0.003182975 0.0001218915 -0.105762266 0.07392418
0.010316235 -0.045336403 -0.21215579 -0.0010038018 -0.031284228 -0.00011359959 0.0756262 -0.08663988
0.0355327 0.025771145 -0.049756598 0.042223215 -0.0926965
00000000: 4412 1e3e 7e8e efbd 93ec 6f3e a74c 62bc
00000010: 211b 883d 34b3 6cbc b03a 9c3e d2e4 943d
00000020: 8232 a23e 93ec 69bc c6c8 953d 698a 43be
00000030: 0c60 f83d 4c3b 2c3d bd88 75be 3918 19be
00000040: 20fb af3c d9d0 babd 8905 a6bc 87de fd3d
00000050: 7699 50bb 00a0 ff38 e399 d8bd 8f65 973d
00000060: 6d05 293c aab2 39bd 5e3f 59be 0092 83ba
00000070: e423 00bd 513c eeb8 e9e1 9a3d 4070 b1bd
00000080: bd8a 113d 021e d33c 93cd 4bbd 40f2 2c3d
00000090: aad7 bdbd
